software/assets/sign_language_model.tflite (tflite, 3712 bytes, 2 tensors)

arith.constant f4 [27, 16]
0	0xbda64068	-0.08117753
1	0xbea091a5	-0.31361118
2	0xbcd6f610	-0.026240379
3	0x3df1071c	0.11768934
4	0x3e3016b8	0.17196167
5	0x3df366b0	0.118848205
6	0x3d2fcc70	0.042919576
7	0x3ea42ce4	0.320655
8	0x3cf48520	0.029848635
9	0xbd9b8864	-0.07594374
10	0xbe383344	-0.17988306
11	0x3e907280	0.28212357
12	0x3e431ec0	0.19054699
13	0xbe064072	-0.13110521
14	0xbe5c1e35	-0.21495898
15	0xbe509344	-0.20368677
16	0x3e744718	0.23855245
17	0xbe7a5dad	-0.24449797
18	0xbeb6e278	-0.35719657
19	0x3cfe12c0	0.0310148
20	0x3e05b38c	0.13056773
21	0x3ea032e4	0.31288826
22	0xbe1b5942	-0.15170768
23	0x3e163888	0.14670002
24	0xbcea23f0	-0.02858159
25	0x3d334ff0	0.043777406
26	0xbe7c2fca	-0.24627605
27	0xbabdfb00	-0.001449436
28	0xbea9bcc6	-0.33151835
29	0x3e59c030	0.2126472
30	0xbebaec35	-0.36508337
31	0x3e73d09c	0.23810047
32	0x3e80a20e	0.25123638
33	0xbeaf7861	-0.3427153
34	0xbe13f1f2	-0.14447764
35	0xbe9c3d9c	-0.30515754
36	0xbd457bc8	-0.04821375
37	0x3eb366ea	0.35039455
38	0xbe40999e	-0.188086
39	0xbc109560	-0.008824676
40	0xbde9aad0	-0.11409533
41	0x3e36d4ec	0.17854661
42	0x3ea85094	0.32873976
43	0xbeb1dba9	-0.347379
44	0x3e98bda4	0.29832184
45	0xbe34098c	-0.17581767
46	0x3e6a29f8	0.22867572
47	0xbcc79b70	-0.02436611
48	0x3e0960a0	0.13415766
49	0xbeba88ff	-0.36432645
50	0x3ea4ad52	0.32163483
51	0xbd3588d8	-0.044319957
52	0x3deebddc	0.116573066
53	0xbe9a6f74	-0.30163157
54	0xbd5eaf28	-0.05436626
55	0x3e597e2c	0.21239537
56	0x3d94b50c	0.072610945
57	0x3d743d40	0.059628725
58	0x3ea76298	0.3269241
59	0xbc8e92f0	-0.01740405
60	0xbd10d8c0	-0.03536296
61	0x3da022ec	0.07819161
62	0x3cea7fd0	0.028625399
63	0xbc361ec0	-0.01111573
64	0xbe70a111	-0.23498942
65	0x3e0ba184	0.13635832
66	0xbe107390	-0.14106584
67	0x3e92c99e	0.28669447
68	0x3eaf989c	0.3429612
69	0x3e2d63b0	0.16932559
70	0xbe3d79d0	-0.18503499
71	0xbd94f214	-0.07272735
72	0x3df7ffdc	0.12109348
73	0xbe76adeb	-0.24089782
74	0x3e2ba2cc	0.16761321
75	0xbdcbb70c	-0.09947023
76	0x3e743fc8	0.23852456
77	0x3e747f50	0.23876691
78	0x3e453db8	0.19261825
79	0x3df16234	0.11786309
80	0x3ebcf2f2	0.36904103
81	0x3ca64760	0.020297706
82	0x3e00e7d4	0.12588435
83	0xbe701dd0	-0.23448873
84	0xbe9c2872	-0.30499607
85	0x3eb22e8a	0.3480113
86	0x3dfe9acc	0.12431869
87	0x3d5c7850	0.053825676
88	0xbe682ccd	-0.2267334
89	0x3eab23b6	0.33425683
90	0x3e94fbac	0.2909826
91	0x3e246a98	0.16056287
92	0x3e80fe94	0.25194228
93	0xbe69ad39	-0.22819985
94	0x3e4a6370	0.19764495
95	0x3d108c10	0.035289824
96	0xbeb49918	-0.3527305
97	0x3ab61100	0.0013890564
98	0xbe9a938f	-0.30190703
99	0x3e19b1c8	0.15009224
100	0xbea04640	-0.31303596
101	0x3e03ea44	0.12882334
102	0xbebbd2d6	-0.36684293
103	0xbe8dd056	-0.2769801
104	0xbd59b068	-0.05314675
105	0xbe07190e	-0.13193151
106	0xbe3c8aef	-0.18412374
107	0xbdaff6f0	-0.085920215
108	0xbdc2e4d4	-0.09516302
109	0xbdfede74	-0.12444773
110	0xbeb8b171	-0.36072877
111	0xbe296c52	-0.16545227
112	0x3d9d6a50	0.07686293
113	0xbe5ee159	-0.21765651
114	0xbe0df53f	-0.13863085
115	0xbdf749f0	-0.12074649
116	0x3e998ff2	0.29992634
117	0xbdea03e8	-0.11426526
118	0xbe91645c	-0.2839688
119	0xbde34c70	-0.11098564
120	0xbeb523da	-0.35378915
121	0xbe23b544	-0.15987116
122	0x3e5ada18	0.21372259
123	0x3eab8960	0.33503246
124	0x3b980540	0.0046392977
125	0x3e5fad60	0.21843481
126	0xbc8c69f0	-0.017140359
127	0x3c924f10	0.017859966
128	0xbd7faf08	-0.062422782
129	0xbda847dc	-0.08216831
130	0xbe8b60ff	-0.2722244
131	0xbe9ca462	-0.30594164
132	0x3d838ae0	0.06422973
133	0xbe282f23	-0.16424231
134	0xbe55cbb7	-0.20878492
135	0x3dd2ba7c	0.10289475
136	0x3e741864	0.2383743
137	0x3e580f44	0.21099573
138	0xbdf9c5e8	-0.12195951
139	0x3e43d07c	0.19122499
140	0x3c788060	0.015167326
141	0xbd3f9540	-0.046773195
142	0xbeb27e8c	-0.34862173
143	0xbe64eb49	-0.22355379
144	0x3e3591dc	0.17731422
145	0x3e9edd3e	0.3102817
146	0xbe38b5ae	-0.18038055
147	0x3e1761b4	0.14783365
148	0xbe8c1e42	-0.27366835
149	0xbe90dce7	-0.28293535
150	0x3df49190	0.11941826
151	0xbeb56780	-0.35430527
152	0xbd9f8070	-0.077881694
153	0xbd4e4e08	-0.050367385
154	0xbd03dae8	-0.032191187
155	0xbe032a61	-0.12809135
156	0xbda63f30	-0.08117521
157	0xbc090000	-0.008361816
158	0x3e0a8968	0.13528979
159	0xbe0f9702	-0.14022449
160	0x3eb730d6	0.35779446
161	0xbe7e9526	-0.24861583
162	0x3db6fa24	0.08934429
163	0x3e6167f4	0.22012311
164	0x3e91d270	0.28480864
165	0x3c53bda0	0.012923628
166	0xbd4321b8	-0.04763958
167	0xbea7fcdc	-0.32810104
168	0xbe3cb614	-0.18428832
169	0xbe86e454	-0.26346076
170	0xbea36634	-0.31913912
171	0xbd395948	-0.04525116
172	0x3e725188	0.23663914
173	0x3e9f6ca6	0.3113758
174	0x3e1e156c	0.1543786
175	0x3eb585f2	0.35453755
176	0x3d49c6a8	0.04926172
177	0xbe8db939	-0.27680376
178	0xbd7d75a8	-0.061879784
179	0xbe459783	-0.19296078
180	0xbe27e241	-0.16394903
181	0xbded5444	-0.11588338
182	0xbd877c6c	-0.066155285
183	0x3e479f3c	0.19494337
184	0x3de99df0	0.11407077
185	0x3df7f5e8	0.1210745
186	0x3eb0e548	0.34549928
187	0xbe856df4	-0.2606045
188	0xbebdbc09	-0.37057522
189	0x3d658bd8	0.05604157
190	0x3e80ef1a	0.2518242
191	0x3e5ab558	0.2135824
192	0xbe0860b9	-0.13318147
193	0x3e9ea2ce	0.30983585
194	0x3e8cea8c	0.27522695
195	0x3e03c870	0.1286943
196	0x3d6027f8	0.054725617
197	0xbe9a1402	-0.3009339
198	0x3e7245e4	0.23659474
199	0x3e1cee2c	0.1532523
200	0xbd903c54	-0.07042757
201	0x3e1d5560	0.15364599
202	0x3ce40c60	0.027837932
203	0x3e03b528	0.12862074
204	0x3db31e98	0.0874607
205	0x3e221f20	0.15832186
206	0x3e1f4414	0.15553313
207	0xbe213bb6	-0.15745434
208	0x3e8db96a	0.27680522
209	0x3d9deba8	0.077109635
210	0xbea8e8f6	-0.32990235
211	0x3e91ff88	0.28515267
212	0xbe6ed59b	-0.23323672
213	0x3e9a58b8	0.30145812
214	0xbe684865	-0.22683866
215	0xbcf445a0	-0.029818356
216	0x3d259ee0	0.040434718
217	0x3eb18ee2	0.34679323
218	0x3df01fc0	0.11724806
219	0x3e272eb8	0.16326416
220	0xbdb1a218	-0.08673495
221	0x3e0b0dbc	0.13579458
222	0x3e5e3b24	0.21702248
223	0xbe8dc147	-0.2768652
224	0xbd9a8ea4	-0.07546738
225	0xbd804d9c	-0.06264803
226	0x3e092290	0.13392091
227	0xbe78b251	-0.24286772
228	0xbc17e820	-0.0092716515
229	0xbe937ed8	-0.28807712
230	0xbde0eb90	-0.1098243
231	0xbd34b820	-0.044120908
232	0x3e4f45dc	0.20241493
233	0xbd299fb8	-0.041412085
234	0x3c807280	0.015679598
235	0xbe33fc67	-0.17576753
236	0x3cfa4310	0.030549556
237	0xbe020aa2	-0.12699369
238	0xbe8ed2e9	-0.27895287
239	0x3e9aab1a	0.30208665
240	0x3e4a1464	0.19734341
241	0xbe3467a8	-0.17617667
242	0xbe0124e1	-0.12611724
243	0xbe0149f4	-0.12625867
244	0xbe6929aa	-0.227698
245	0x3cc6f7b0	0.024288028
246	0xbe2bd6d1	-0.16781165
247	0xbe9a1592	-0.30094582
248	0xbe914920	-0.28376102
249	0xbe505685	-0.20345505
250	0xbb134b00	-0.0022475123
251	0x3e24aa80	0.16080666
252	0xbe78fc2a	-0.24314943
253	0x3b08c200	0.0020867586
254	0x3ebc7e1a	0.36814958
255	0xbea10ed1	-0.31456617

sequential_1_1/dense_2_1/MatMul f4 [16, 8]
0	0x3eda14bc	0.42593944
1	0xbee6907c	-0.45032108
2	0x3ecbb4e0	0.39786434
3	0xbd310e20	-0.04322636
4	0xbee05ad0	-0.43819284
5	0xbbba8400	-0.005692005
6	0x3e8a99fc	0.27070606
7	0x3e9434a4	0.28946412
8	0x3ee709dc	0.4512471
9	0x3e504e20	0.20342302
10	0x3e28cd78	0.1648463
11	0xbeb17004	-0.34655774
12	0xbd793740	-0.060843706
13	0x3e89a5bc	0.26884258
14	0x3e0ce418	0.13758886
15	0xbef7d300	-0.48403168
16	0xbdc73030	-0.09725988
17	0xbe8df4d8	-0.27725863
18	0xbe7afb98	-0.24510038
19	0x3ead4b7c	0.33846653
20	0x3dda4360	0.10657382
21	0x3e2e2f08	0.17010128
22	0xbe18b6d8	-0.149135
23	0x3e00c2b8	0.1257428
24	0xbda0f5b0	-0.07859361
25	0xbd95ed20	-0.07320619
26	0x3dba5d10	0.090997815
27	0xbec492bc	-0.383932
28	0xbdb64de0	-0.08901572
29	0xbe1dd3f8	-0.15412891
30	0x3ebea9ac	0.37238824
31	0x3efc2d88	0.49253488
32	0x3e2c59f0	0.16831183
33	0x3e7ad3c0	0.24494839
34	0x3e13ba50	0.14426541
35	0xbe9d4d88	-0.30723214
36	0xbe8ec698	-0.2788589
37	0xbe9aa598	-0.30204463
38	0x3ee5cce0	0.4488287
39	0x3e179378	0.14802349
40	0xbeb1b4a8	-0.34708142
41	0x3d65bd20	0.056088567
42	0xbe60fd50	-0.21971631
43	0xbcf24f00	-0.029578686
44	0xbe2c4910	-0.16824746
45	0xbe9ac9c0	-0.30232048
46	0x3bde0600	0.0067756176
47	0xbee280b8	-0.4423883
48	0xbe961980	-0.2931633
49	0x3ee779e8	0.45210195
50	0x3d9243a0	0.07141805
51	0xb9748000	-0.00023317337
52	0x3ce3c580	0.027804136
53	0xbd0386a0	-0.03211081
54	0xbe088940	-0.13333607
55	0xbd796640	-0.06088853
56	0xbec1e9a4	-0.37873566
57	0x3eebe254	0.46071112
58	0x3eba8bf8	0.36434913
59	0x3e175710	0.14779305
60	0x3efe06ac	0.49614465
61	0x3ebf7ed8	0.37401462
62	0x3e4789e0	0.19486189
63	0xbe5c01b8	-0.2148503
64	0x3e9f46f4	0.3110882
65	0xbdf91a20	-0.12163186
66	0x3e58a868	0.21157992
67	0xbe96d068	-0.29455876
68	0x3eece27c	0.46266544
69	0xbedcae14	-0.4310156
70	0xbc731500	-0.01483655
71	0xbee5e3c4	-0.44900334
72	0xbee12504	-0.43973553
73	0x3ea94c7c	0.33066165
74	0x3e91e484	0.28494656
75	0x3e641bf0	0.22276282
76	0xbda48850	-0.08033812
77	0xbde24a90	-0.11049378
78	0x3ea45438	0.32095504
79	0x3ee35f40	0.44408607
80	0x3e048508	0.12941372
81	0xbd669640	-0.056295633
82	0x3d14fa20	0.03637135
83	0x3ead9d70	0.33909178
84	0xbed852d0	-0.4225068
85	0xbe45d0f8	-0.19317997
86	0x3ef68b4c	0.4815315
87	0xbe2f76b8	-0.17135131
88	0x3e7d87d8	0.24758852
89	0x3eb83a04	0.35981762
90	0xbdb56660	-0.08857417
91	0xbeb9dbbc	-0.36300457
92	0x3ed73138	0.42029738
93	0x3e642ef8	0.22283542
94	0xbd594ee0	-0.053053737
95	0x3d279aa0	0.040918946
96	0xbd9067d0	-0.07051051
97	0xbcb9e800	-0.022693634
98	0xbd495960	-0.0491575
99	0x3eb3c1a4	0.35108674
100	0x3e925f80	0.28588486
101	0x3ee6f9f8	0.45112586
102	0x3ed08688	0.4072764
103	0x3e71e068	0.2362076
104	0x3e999728	0.29998136
105	0xbe9e232c	-0.3088621
106	0x3e9365f8	0.28788733
107	0xbed20b04	-0.4102403
108	0x3ec2ee6c	0.38072526
109	0x3ee620f8	0.44947028
110	0x3ebf5554	0.37369788
111	0x3b5b0400	0.0033419132
112	0x3c889100	0.016670704
113	0x3d3d1d20	0.046170354
114	0x3d862aa0	0.06551099
115	0xbe266780	-0.1625042
116	0x3d981ae0	0.07427001
117	0xbdf603a0	-0.1201241
118	0xbefbbbd8	-0.4916675
119	0x3e8de6b4	0.27715075
120	0xbe9a80ec	-0.30176485
121	0x3eb1cd6c	0.34727037
122	0xbee70914	-0.45124114
123	0xbeaa95b8	-0.3331735
124	0xbe268ef8	-0.16265476
125	0xbef29b68	-0.4738419
126	0x3e9842fc	0.29738605
127	0x3ed21ad4	0.41036093
